rbergomi_model.pth (torch, 80986 bytes, 9 tensors)

model.0.weight f4 [64, 8]
0.10751685 0.8614047 -0.27278894 -0.18649085 0.09062002 0.19442794 0.066431195 -0.5009005
0.3464094 -0.11892818 -0.05804524 -0.015736755 0.11757564 -0.13408484 -0.37178278 -0.07590563
-0.004040965 0.0058041564 -0.005345793 -0.00034035565 0.0035028714 0.00078848493 -0.0012172032 0.0038134959
-0.3606336 -0.07369596 -0.076744616 0.583426 -0.19441707 0.4424024 0.40661883 0.054505136
0.22331397 0.051955827 -0.108671345 0.95393264 -0.20245197 0.3055872 0.10767389 0.66415566
0.10796412 0.34806684 0.11065667 -0.42239314 -0.21659765 -0.693786 -0.28022188 0.032814372
0.13052803 0.4674914 0.30943978 0.040747534 0.053719915 -0.120144375 -0.48571062 -0.9410826
0.11770008 0.05867795 0.32886162 -0.79727006 -0.15094358 -0.5163445 -0.35590437 0.28089374
0.17924114 0.3536798 -0.18990624 -0.020473296 0.06098494 -0.1665236 -0.004366666 0.41727105
0.013051791 0.38052836 0.2424168 -0.72052133 -0.3319188 0.20030448 -0.3548367 0.39622143
0.6108866 0.10131447 0.30447876 0.59023255 0.04167294 -1.2442394 -0.043356713 0.38735622
0.0033776585 0.038253207 -0.22386645 -0.96531963 0.51449573 -0.13304326 0.25996768 0.02439615
-0.6108565 0.46659935 0.27387887 -0.015050693 -0.024418276 -0.114194244 -0.009159857 -0.3387641
0.11848743 0.5245689 0.16033053 0.011206207 -0.09899039 0.070201404 -0.12796351 0.55771893
-0.3495159 -0.011718529 0.18645926 0.1631595 0.6474524 0.15281855 -0.057315834 -0.63110304
0.31385756 0.04991736 0.06931738 0.11691433 -0.09612897 -0.3369354 -0.62551945 0.16171665
0.18170226 -0.31377056 0.042466372 -0.10247317 0.26583 0.6667494 -0.07091859 -0.8396005
0.29268607 -0.73901856 -0.97464615 -0.15956101 0.11240473 0.41444278 -0.08787379 0.14021716
-0.18176061 -0.04481595 0.30452532 -0.46052933 -0.06192081 -0.20927815 -0.028723959 -1.0152303
0.023080021 -0.08528608 0.49508873 -0.3879521 0.4887615 -0.7775422 0.031427857 0.29642683
-0.088432066 0.23187706 -0.011611875 0.32267132 0.48227268 -0.026896525 0.44355315 -0.16549961
0.5392105 -0.13388719 0.048613053 -0.43747592 0.5145604 0.20038813 0.008900005 -0.20640984
0.024330076 -0.075845525 0.016702704 0.44575045 -0.09728924 -1.0779014 0.8635039 -0.015614512
0.03274464 0.08268599 -0.0036686528 -0.6911636 0.28873304 -0.529745 -0.05508437 0.5932795
-0.10687406 -0.1722021 -0.108726606 0.5647132 -0.2621734 -0.40803662 0.12203266 0.42008105
0.23732635 -0.009662093 0.15376452 -0.19827923 0.4173617 0.13384469 0.7905654 0.3606007
-0.63936526 -0.25557208 0.11946281 -0.009601566 0.5270916 0.20903051 -0.27466953 0.20995606
-0.21578184 -0.67449796 0.19895141 -0.27019498 0.2750479 0.039801996 0.08801901 -0.30643997
0.36596358 0.17275557 0.18503366 0.2623426 0.08738326 0.32297382 0.5569642 -0.2828976
0.37404096 0.0054929736 -0.25056213 -0.93003756 -0.11370575 0.34146312 -0.015335216 0.39921302
0.42802453 -0.1633713 -0.21837555 0.58708405 0.20154767 -0.58296394 -0.13087808 -0.40628698
0.10302493 0.37847134 0.440817 0.4040765 0.16933565 0.12271161 -0.09545427 0.5274495
00000000: cb31 dc3d 0585 5c3f feaa 8bbe 75f7 3ebe
00000010: fd96 b93d 1e18 473e 140d 883d 043b 00bf
00000020: 935c b13e 9e90 f3bd d8c0 6dbd 5eea 80bc
00000030: 7fcb f03d 894d 09be 505a bebe 6974 9bbd
00000040: 126a 84bb cb30 be3b c32b afbb c371 b2b9
00000050: 6e90 653b 54b2 4e3a 908a 9fba d8eb 793b
00000060: f8a4 b8be e8ed 96bd 482c 9dbd 685b 153f
00000070: 4515 47be 9182 e23e 5830 d03e c740 5f3d
00000080: 6bac 643e a2cf 543d 158f debd ee34 743f
00000090: 924f 4fbe ed75 9c3e 2184 dc3d 1b06 2a3f
000000a0: 4b1c dd3d d135 b23e f79f e23d ea43 d8be
000000b0: c6cb 5dbe f69b 31bf 3e79 8fbe 5d68 063d
000000c0: 24a9 053e 085b ef3e e46e 9e3e e3e6 263d
000000d0: 6a09 5c3d 410e f6bd 10af f8be caea 70bf
000000e0: bd0c f13d 4a58 703d 8d60 a83e e419 4cbf
000000f0: f490 1abe 272f 04bf 1939 b6be 4ed1 8f3e
00000100: fd8a 373e 8515 b53e c876 42be 9db7 a7bc
00000110: 58cb 793d 2a85 2abe 4016 8fbb 8da4 d53e
00000120: 2ed7 553c 9dd4 c23e 1c3c 783e 1674 38bf
00000130: 43f1 a9be 9e1c 4d3e 28ad b5be 89dd ca3e
00000140: 1063 1c3f f67d cf3d a4e4 9b3e 7b19 173f
00000150: 3fb1 2a3d 3d43 9fbf cf96 31bd 8e53 c63e
00000160: b55b 5d3b 65af 1c3d 3f3d 65be 301f 77bf
00000170: feb5 033f 7e3c 08be 7c1a 853e 6fda c73c
00000180: 1761 1cbf 1ce6 ee3e da39 8c3e 2f97 76bc
00000190: d608 c8bc acde e9bd 3a13 16bc 7d72 adbe
000001a0: 8aa9 f23d 264a 063f b02d 243e 3d9a 373c
000001b0: 79bb cabd c1c5 8f3d de08 03be abc6 0e3f
000001c0: bff3 b2be 13ff 3fbc 2def 3e3e 4913 273e
000001d0: 71bf 253f 777c 1c3e 02c4 6abd f88f 21bf
000001e0: f0b1 a03e 2576 4c3d 45f6 8d3d c870 ef3d
000001f0: 44df c4bd cc82 acbe 0b22 20bf 0d99 253e
00000200: 2810 3a3e 89a6 a0be 38f1 2d3d 74dd d1bd
00000210: df1a 883e 17b0 2a3f c43d 91bd 0ff0 56bf
00000220: f3da 953e 5230 3dbf 6982 79bf f663 23be
00000230: 7334 e63d d831 d43e 2cf7 b3bd 1695 0f3e
00000240: 741f 3abe ee90 37bd beea 9b3e 80ca ebbe
00000250: ada0 7dbd 034d 56be 824e ebbc 11f3 81bf
00000260: 5012 bd3c 78aa aebd 457c fd3e a8a1 c6be
00000270: f33e fa3e 010d 47bf 7fba 003d 42c5 973e
00000280: df1b b5bd 2e71 6d3e bc3f 3ebc 2d35 a53e
00000290: 72ec f63e 1a56 dcbc 6619 e33e bb78 29be
000002a0: b309 0a3f b919 09be 7b1e 473d d8fc dfbe
000002b0: 3bba 033f 8c32 4d3e 54d1 113c 1a5d 53be
000002c0: de4f c73c e654 9bbd 1cd4 883c 6739 e43e
000002d0: 953f c7bd acf8 89bf 970e 5d3f 03d4 7fbc
000002e0: 3e1f 063d 4657 a93d c86d 70bb 19f0 30bf
000002f0: d1d4 933e 5e9d 07bf 26a0 61bd 2ae1 173f
00000300: cae0 dabd bf55 30be 0eac debd 0b91 103f
00000310: 983b 86be 2dea d0be 42ec f93d dd14 d73e
00000320: ae05 733e c14d 1ebc 7274 1d3e b609 4bbe
00000330: 6fb0 d53e 950e 093e 7e62 4a3f a8a0 b83e
00000340: 71ad 23bf 58da 82be eba8 f43d e34f 1dbc
00000350: 7aef 063f 180c 563e 7ca1 8cbe b9fe 563e
00000360: eaf5 5cbe e6ab 2cbf ebb9 4b3e ff56 8abe
00000370: 14d3 8c3e 6b07 233d 5043 b43d b3e5 9cbe
00000380: 945f bb3e d6e6 303e 7779 3d3e c551 863e
00000390: fff5 b23d d35c a53e 3595 0e3f f4d7 90be
000003a0: 4c82 bf3e 67fe b33b ae49 80be f116 6ebf
000003b0: 8fde e8bd 41d4 ae3e 8f40 7bbc a665 cc3e
000003c0: 0826 db3e ce4a 27be d79d 5fbe 244b 163f
000003d0: 8362 4e3e 203d 15bf e704 06be d904 d0be
000003e0: bcfe d23d ffc6 c13e c4b2 e13e 1de3 ce3e
000003f0: 5366 2d3e 3950 fb3d 877d c3bd ee06 073f

model.0.bias f4 [64]
-0.15290748 0.22384854 0.0018812022 0.18249759 -0.36173332 -0.35414493 -0.75877905 -0.05102357
0.2773996 -0.30833417 -0.68430567 -0.3040411 -0.006857168 0.4388131 -0.14474523 0.26228794
-0.49703297 -0.22671135 -0.41023037 -0.19876593 0.12060703 0.19886851 -0.49631044 0.2205141
0.16426879 -0.19397102 -0.61291367 0.1322603 -0.12934697 -0.03866782 -0.20259519 0.20746216
0.5132829 0.31650174 0.40598512 -0.21256357 -0.6849311 0.051745538 -0.13050793 -0.027378617
-0.08315209 -0.16752474 -0.0073912963 -0.086126864 -0.4515564 -0.1795256 -0.15276994 -0.1682606
-0.1997692 -0.71746147 -0.4647472 -0.2910881 0.08764699 -0.42372143 -0.22544588 -0.16374747
-0.18406238 -0.20130423 -0.37095293 0.17993914 -0.60277534 -0.46611676 0.022596646 -0.38071314
00000000: c793 1cbe 8d38 653e ac92 f63a a6e0 3a3e
00000010: 1c35 b9be 7c52 b5be 583f 42bf 17fe 50bd
00000020: 5207 8e3e fadd 9dbe a82e 2fbf 46ab 9bbe
00000030: 18b2 e0bb 1cac e03e 1838 14be 9b4a 863e
00000040: 1b7b febe 0527 68be b709 d2be 4c89 4bbe
00000050: d200 f73d 30a4 4b3e 671c febe 73ce 613e
00000060: 1436 283e 57a0 46be e9e7 1cbf 3e6f 073e
00000070: 8873 04be 2662 1ebd 1d75 4fbe f670 543e
00000080: 8266 033f 840c a23e 48dd cf3e 44aa 59be
00000090: a557 2fbf 21f3 533d dfa3 05be 1f49 e0bc
000000a0: a54b aabd 9b8b 2bbe b032 f2bb 4863 b0bd
000000b0: 6732 e7be 8fd5 37be b96f 1cbe 824c 2cbe
000000c0: 4c90 4cbe 8eab 37bf 58f3 edbe 8009 95be
000000d0: 4480 b33d 04f2 d8be 49db 66be 6bad 27be
000000e0: d97a 3cbe b222 4ebe 8bed bdbe f741 383e
000000f0: 7c4f 1abf dba6 eebe 9a1c b93c d5ec c2be

model.2.weight f4 [128, 64]
-0.22311006 -0.18617938 -0.058383677 -0.27505633 0.013309058 -0.04800767 -0.14462806 0.07181203
0.04974346 0.39744315 0.03466258 -0.3062568 0.10621153 0.26985168 -0.1408223 0.04831173
-0.20684546 -0.15044868 -0.11340317 -0.063727394 -0.1824465 -0.51258034 0.13929842 -0.020487184
-0.12245115 0.6102147 0.37594396 -0.27865866 -0.08989945 -0.066210754 0.16829376 0.20893392
-0.009082897 0.06940662 -0.017355956 0.3979805 -0.09105973 0.25723687 -0.480827 0.09432888
0.1497401 -0.029569637 0.43553746 -0.026067968 0.024999665 -0.30373788 0.0071925735 -0.05045057
-0.26251754 -0.08383775 0.0021894658 0.07631447 0.21749279 0.09582826 0.23967989 -0.38324475
0.2617484 -0.043812178 0.30987343 -0.07161748 -0.1382334 -0.012512049 -0.27114725 0.1631739
-0.71198636 -0.14311802 -0.07930161 -0.14145274 0.52485156 -0.06793492 0.10332679 -0.1431711
-0.046668675 0.08831525 -0.030602137 0.17447728 -0.20399345 -0.08268328 -0.006888523 -0.26770267
-0.16961858 0.2576577 -0.0038470544 -0.3161674 -0.11468441 -0.5724935 -0.18578461 -0.13417645
0.16208927 0.25805882 0.14697045 -0.174201 -0.009372276 0.2949313 -0.22465324 -0.027531797
-0.034719627 -0.10209909 -0.49720737 0.17926612 0.44555238 0.0981432 -0.059345827 0.13282996
-0.2466744 -0.24727245 0.01442927 0.24518974 0.057454344 -0.03556662 0.22678123 0.3477944
0.1783873 0.014449853 0.16094108 0.30271485 0.11611054 -0.10042491 0.38197106 0.33209923
-0.35386315 0.24124631 0.25114924 -0.19438964 -0.16538736 -0.018139252 0.018630259 0.05520146
-0.11532127 0.06015581 -0.023498207 -0.31951118 0.024572024 0.15364799 0.11805459 0.32001588
0.11794603 0.2260154 -0.1889987 0.028522892 -0.05627068 0.15204585 -0.22130635 0.24977846
-0.14153211 -0.017039394 -0.07872918 0.004985811 -0.37164232 -0.04567463 -0.50065035 0.11313158
0.044178333 -0.28798458 0.025336957 -0.31250307 -0.5067752 0.21731368 0.17455731 0.08356721
0.08066614 0.12854658 -0.13418327 0.12842478 -0.118079685 -0.12201839 -0.06826484 -0.11087094
0.22437504 0.15977676 0.4466162 0.13940854 -0.17401658 -0.12783504 0.1063001 0.06612154
-0.086604804 -0.05452138 -0.32148266 0.0075288555 0.30640456 -0.055473905 -0.04743757 -0.14304009
-0.2272464 0.16016205 0.08588402 0.27824673 -0.25563097 -0.32333782 -0.124491476 0.14069237
-0.38893858 -0.0712842 -0.067067504 -0.13073808 0.08336528 0.12586455 0.22828345 -0.41848454
-0.22768196 -0.12281633 0.75473344 -0.008389449 0.5800243 -0.21216214 0.3299113 -0.1334903
0.033855833 0.025288653 0.029557701 0.058881205 0.081424996 -0.053248964 -0.52403253 -0.40349892
-0.062762 0.37423763 0.4056954 -0.29161796 -0.2803124 -0.3005528 0.82058185 0.25901031
-0.032022115 -0.26168483 0.012992129 0.22659034 -0.050857414 -0.038617864 0.33429924 -0.115286864
-0.45238972 0.8088642 -0.119725496 0.45559737 0.1998499 0.08313355 -0.27113616 0.13246022
0.39611337 -0.011486372 -0.32256058 -0.2761255 0.022830827 0.39608467 0.16267806 -0.27009824
-0.4883533 0.39781266 0.11190324 -0.010241527 0.35873973 -0.04563726 0.14280438 0.24309888
00000000: f776 64be cfa5 3ebe b923 6fbd 2fd4 8cbe
00000010: 3c0e 5a3c b1a3 44bd 6119 14be 3012 933d
00000020: ccbf 4b3d ab7d cb3e 59fa 0d3d b1cd 9cbe
00000030: 6e85 d93d 002a 8a3e b933 10be 85e2 453d
00000040: 4ccf 53be 380f 1abe ec3f e8bd 8283 82bd
00000050: 41d3 3abe 7738 03bf 3fa4 0e3e bdd4 a7bc
00000060: abc7 fabd 0837 1c3f ba7b c03e 59ac 8ebe
00000070: 341d b8bd 8199 87bd 3355 2c3e c6f2 553e
00000080: 6ed0 14bc 0f25 8e3d 142e 8ebc 1ac4 cb3e
00000090: 867d babd 8db4 833e f52e f6be 802f c13d
000000a0: 7855 193e 063c f2bc c4fe de3e 7e8c d5bc
000000b0: 19cc cc3c 8883 9bbe aeaf eb3b 42a5 4ebd
000000c0: b368 86be 20b3 abbd 247d 0f3b c34a 9c3d
000000d0: 6eb6 5e3e 9b41 c43d a56e 753e a838 c4be
000000e0: e303 863e 6674 33bd bba7 9e3e 2fac 92bd
000000f0: 0e8d 0dbe 56ff 4cbc d0d3 8abe 0f17 273e
00000100: bd44 36bf 888d 12be e268 a2bd fdd8 10be
00000110: ac5c 063f 7721 8bbd ff9c d33d 729b 12be
00000120: a727 3fbd a0de b43d 55b1 fabc 2caa 323e
00000130: a9e3 50be da55 a9bd 1fb9 e1bb 5310 89be
00000140: 7eb0 2dbe b6eb 833e dd1e 7cbb b2e0 a1be
00000150: a9df eabd ef8e 12bf 523e 3ebe 8d65 09be
00000160: bbfa 253e 4920 843e 6c7f 163e bf61 32be
00000170: 2d8e 19bc 3c01 973e 800b 66be 5d8a e1bc
00000180: 2b36 0ebd 5419 d1bd f791 febe 8a91 373e
00000190: 711f e43e 4dff c83d 9c14 73bd 9404 083e
000001a0: 3798 7cbe fd34 7dbe bf68 6c3c 0513 7b3e
000001b0: 3f55 6b3d 4eae 11bd 5739 683e 1c12 b23e
000001c0: 29ab 363e 14bf 6c3c bdcd 243e 71fd 9a3e
000001d0: 5dcb ed3d 93ab cdbd b691 c33e e908 aa3e
000001e0: 8d2d b5be 4609 773e a296 803e 140e 47be
000001f0: 4e5b 29be c598 94bc 7c9e 983c ed1a 623d
00000200: 8f2d ecbd f065 763d 507f c0bc f896 a3be
00000210: 454b c93c e655 1d3e 9bc6 f13d 1fd9 a33e
00000220: b08d f13d 9570 673e e088 41be d7a8 e93c
00000230: 167c 66bd e8b1 1b3e 229e 62be edc5 7f3e
00000240: cbed 10be 3396 8bbc c43c a1bd 0460 a33b
00000250: e747 bebe 5215 3bbd 9f2a 00bf 88b1 e73d
00000260: 57f4 343d b772 93be 738f cf3c 6700 a0be
00000270: 05bc 01bf 7a87 5e3e 27bf 323e 4925 ab3d
00000280: 4a34 a53d b7a1 033e 5767 09be c981 033e
00000290: c3d3 f1bd c7e4 f9bd 70ce 8bbd 4e10 e3bd
000002a0: 92c2 653e 859c 233e e1aa e43e 1dc1 0e3e
000002b0: 6731 32be 30e7 02be deb3 d93d bb6a 873d
000002c0: dc5d b1bd d051 5fbd 6099 a4be 9eb4 f63b
000002d0: 0fe1 9c3e 9b38 63bd e64d 42bd 1a79 12be
000002e0: 48b3 68be 8501 243e f6e3 af3d 5b76 8e3e
000002f0: 10e2 82be 898c a5be 63f5 febd a911 103e
00000300: f522 c7be 73fd 91bd b05a 89bd 34e0 05be
00000310: 6abb aa3d a3e2 003e 23c3 693e 9b43 d6be
00000320: 7625 69be 2187 fbbd 3636 413f e673 09bc
00000330: 797c 143f 0841 59be 22ea a83e aeb1 08be
00000340: 6aac 0a3d 262a cf3c fe22 f23c 6b2d 713d
00000350: 26c2 a63d 961b 5abd ff26 06bf 6997 cebe
00000360: 5d89 80bd 139c bf3e 4fb7 cf3e f34e 95be
00000370: 1b85 8fbe 0ee2 99be a711 523f 009d 843e
00000380: 9f29 03bd 8efb 85be f0dc 543c 4c07 683e
00000390: dd4f 50bd c42d 1ebd 4529 ab3e 851b ecbd
000003a0: a09f e7be b911 4f3f a432 f5bd 0f44 e93e
000003b0: 74a5 4c3e ec41 aa3d 5cd2 8abe a7a3 073e
000003c0: 5fcf ca3e 5631 3cbc a926 a5be 5260 8dbe
000003d0: b707 bb3c 9ccb ca3e 1495 263e 514a 8abe
000003e0: 7209 fabe 1aae cb3e 872d e53d 14cc 27bc
000003f0: bcac b73e 23ee 3abd 503b 123e eaee 783e

model.2.bias f4 [128]
-0.031650886 -0.29389328 0.20739175 -0.28800595 -0.0032503386 0.09655741 -0.044429928 0.13682048
0.023766223 -0.08211903 -0.023956677 -0.092863575 -0.18085572 -0.050666977 -0.0041136304 -0.11020749
-0.22628577 -0.006491364 -0.14128523 -0.1020709 0.11981363 0.14194639 0.054592654 -1.0196034
-0.40543112 -0.21246156 0.084645234 -0.16384687 -0.113392405 0.13412084 -0.0023233346 0.13723081
-0.08255234 -0.5598093 -0.12934518 -0.11006863 -0.06816934 0.1955904 -0.048540097 -0.24208389
0.11842038 -0.39032695 -0.33985433 -0.22602181 0.02366235 -0.07890033 0.07644992 -0.19952783
-0.15490246 -0.019892545 0.07897811 -0.4490404 0.077370666 -0.57295805 -5.4000768e-05 -0.08403559
0.045505777 -0.23513542 0.10016066 0.0365044 0.020265076 -0.01349861 -0.47567275 -0.10445293
-0.03501378 0.053300522 -0.06799688 -0.011376764 0.10021521 -0.08769427 -0.1255319 0.08648157
-0.21423864 -0.02846055 0.21971938 0.13191661 -0.20164725 -0.11169449 -0.18917462 0.069790035
-0.28244013 0.0607669 -0.0958908 0.103850655 -0.6156414 -0.24091837 -0.1882508 0.120192856
-0.2112265 0.107364036 0.052437328 0.024369054 0.022574225 -0.06727608 -0.31801704 0.02539822
-0.4248258 -0.042140298 -0.16915923 -0.045635324 0.08329529 -0.37100518 -0.054393046 0.040919013
-0.43161017 -0.13217895 -0.30752364 0.08764825 -0.14317678 -0.02168842 -0.07999736 -0.58775425
0.011754223 -0.43517226 -0.07737689 -0.33825597 0.012628692 0.08909395 -0.3543733 0.048239037
-0.2956027 -0.018799001 0.15486069 0.10149014 0.015937712 0.005280263 -0.077153444 -0.107809156
00000000: 5ca4 01bd 2e79 96be 815e 543e 8475 93be
00000010: a203 55bb e4bf c53d 28fc 35bd ab1a 0c3e
00000020: 62b1 c23c 062e a8bd cb40 c4bc 422f bebd
00000030: 3e32 39be 2d88 4fbd a2cb 86bb 77b4 e1bd
00000040: 75b7 67be 82b5 d4bb 13ad 10be 8c0a d1bd
00000050: d960 f53d 655a 113e 8c9c 5f3d 5d82 82bf
00000060: ab94 cfbe 868f 59be 7b5a ad3d 79c7 27be
00000070: 473a e8bd f956 093e 1643 18bb 3c86 0c3e
00000080: 3411 a9bd aa4f 0fbf 1073 04be a96b e1bd
00000090: 5e9c 8bbd da48 483e fbd1 46bd d7e4 77be
000000a0: 6286 f23d efd8 c7be 6301 aebe 4372 67be
000000b0: 8bd7 c13c 7f96 a1bd c791 9c3d 0651 4cbe
000000c0: c09e 1ebe b1f5 a2bc 46bf a13d a0e8 e5be
000000d0: 8374 9e3d 61ad 12bf e27e 62b8 da1a acbd
000000e0: 4464 3a3d 57c7 70be 0821 cd3d a385 153d
000000f0: f202 a63c 4629 5dbc 618b f3be 6beb d5bd
00000100: 9c6a 0fbd a651 5a3d f341 8bbd 9b65 3abc
00000110: a23d cd3d 0e99 b3bd 6f8b 00be 401d b13d
00000120: 6061 5bbe 1926 e9bc 1efe 603e 2615 073e
00000130: 9e7c 4ebe 15c0 e4bd feb6 41be 14ee 8e3d
00000140: fe9b 90be b7e6 783d 6562 c4bd a7af d43d
00000150: ad9a 1dbf 4eb3 76be d1c4 40be ac27 f63d
00000160: c24b 58be ade1 db3d 86c8 563d 9ca1 c73c
00000170: 95ed b83c 0bc8 89bd 21d3 a2be ee0f d03c
00000180: c482 d9be 4e9b 2cbd 1438 2dbe 1bec 3abd
00000190: b996 aa3d 64f4 bdbe 3ecb 5ebd b29a 273d
000001a0: 02fc dcbe eb59 07be bd73 9dbe ed80 b33d
000001b0: ef9c 12be eaab b1bc a8d5 a3bd 1077 16bf
000001c0: c994 403c e6ce debe c677 9ebd e32f adbe
000001d0: 93e8 4e3c e476 b63d 6b70 b5be 4c96 453d
000001e0: 3d59 97be 5d00 9abc cd93 1e3e 10da cf3d
000001f0: ce8f 823c 0e06 ad3b a002 9ebd 0ccb dcbd

model.4.weight f4 [64, 128]
-0.2158704 0.18834752 0.22733602 -0.02464753 -0.2438888 -0.010688825 -0.05266926 -0.7729623
0.13496888 0.005808566 -0.39024514 -0.017724382 -0.41515157 0.036755268 0.1847432 0.15179534
0.023864042 0.00062572444 0.28433686 0.036103465 -0.2223009 0.10364516 0.01676078 0.5737024
0.10578599 0.32210395 -0.24169113 0.008741895 -0.09818688 0.016286073 -0.17318347 -0.29140568
-0.44396532 0.094180726 -0.10684674 -0.5950943 0.40636435 0.2584443 -0.14892869 -0.4073655
0.34064248 -0.008543694 0.04477598 0.18813346 0.00073397066 0.22729361 0.16463216 0.44711328
0.41311404 -0.011724191 0.17622703 -0.5021077 0.03028661 -0.104424804 -0.000952051 -0.34541312
-0.00012481997 0.18499608 0.29445797 -0.23423824 0.021517828 -0.008531712 -0.04150992 0.10791008
0.09386691 0.009747656 0.09726751 0.25237498 -0.017310007 -0.09862412 -0.1985627 -0.017911479
-0.043870803 -0.01678563 -0.06739154 -0.018733993 0.32812616 -0.11576421 -0.2271777 0.008043931
0.20841531 -0.27274278 0.0875366 0.018497704 0.09325637 0.058201917 -0.09558818 0.21548524
0.4705547 -0.024119811 0.0658496 0.3011766 0.018056227 0.54158145 -0.30189916 0.0033798658
0.0045934464 0.23378704 0.01685037 0.1758689 -0.43615818 0.16664493 -0.061711945 0.01987722
0.06811913 -0.009963294 -0.14973935 0.068341754 -0.07416917 -0.023769971 0.10731728 -0.04704239
-0.009685084 0.18035844 0.0117065 -0.2703108 0.009994327 0.06691013 -0.22308445 -0.015139741
-0.32775953 -0.09178125 0.21492672 -0.3039623 -0.017250948 -0.045286193 -0.07568314 0.31040847
-0.024503922 0.0061874073 0.020882756 -0.008918666 -0.073278494 -0.015835429 -0.023306185 0.007710827
-0.042038824 -0.02061575 -0.03440427 0.011532582 -0.023697611 0.024139296 -0.005961702 0.03209416
0.020495476 -0.023369186 0.03895225 -0.026030228 0.00364282 -0.029599223 0.010569847 0.0030795997
0.012693607 -0.033728875 -0.006844884 0.010805704 0.0102263605 -0.000512018 0.042182166 -0.02384113
0.01687393 0.0136801135 0.016213698 0.0144653 0.031755526 0.038632598 -0.027506022 0.0051949606
-0.037601862 -0.012003106 -0.024691857 0.013674081 -0.005069496 0.012214334 -0.020270916 0.011142742
0.065040134 -0.008447802 -0.04940409 -0.03549215 -0.037160046 0.017987087 -0.0008249835 0.011221763
-0.064689554 -0.016173653 0.020818204 -0.039668288 0.0045354175 -0.01617791 -0.011490124 0.012931159
0.028933616 -0.013688307 0.02426744 0.03549416 0.007876594 0.023024157 0.049383104 0.023364203
0.012769737 -0.0017006653 -0.01574932 0.02145982 -0.022822354 0.03820686 -0.020108012 -0.014598714
-0.0030289467 -0.0074177687 0.010750061 -0.012553983 0.012704607 -0.012318192 0.029158348 0.0021765202
-0.035532176 0.015944561 -0.030114174 0.002453146 0.0028997988 -0.018419947 0.0015433991 0.001815197
-0.020022262 -0.0036641865 -0.016525706 0.0075975335 -0.010142653 -0.030136986 0.0015209649 -0.012846399
0.0071386197 -0.0022833627 0.004439202 -0.026986063 -0.022780478 0.027260188 0.057744943 0.007834449
-0.019344257 -0.0017398988 0.015222656 -0.017987525 0.03756852 0.008920147 -0.005188572 -0.0131230485
0.008767786 0.011423199 -3.9748247e-05 -0.024195826 0.0053672516 0.0077625336 0.02604228 0.0026526637
00000000: 210d 5dbe 2cde 403e c6ca 683e 9ee9 c9bc
00000010: fcbd 79be 2e20 2fbc b9bb 57bd dbe0 45bf
00000020: 4835 0a3e c955 be3b 36ce c7be b932 91bc
00000030: bf8e d4be b18c 163d 522d 3d3e 3d70 1b3e
00000040: 867e c33c a807 243a 9a94 913e 3ae1 133d
00000050: d9a2 63be ea43 d43d e74d 893c 29de 123f
00000060: 53a6 d83d cfea a43e e17d 77be 2a3a 0f3c
00000070: 3416 c9bd 5f6a 853c 0257 31be 2033 95be
00000080: 6c4f e3be d3e1 c03d 77d2 dabd 1a58 18bf
00000090: fd0e d03e d052 843e c380 18be 3692 d0be
000000a0: b168 ae3e dafa 0bbc 0567 373d 0fa6 403e
000000b0: f067 403a a8bf 683e 5595 283e 08ec e43e
000000c0: af83 d33e d216 40bc dc74 343e 218a 00bf
000000d0: a01b f83c acdc d5bd 1093 79ba fdd9 b0be
000000e0: 1be2 02b9 9d6f 3d3e 32c3 963e 26dc 6fbe
000000f0: 2846 b03c 98c8 0bbc 4e06 2abd f6ff dc3d
00000100: 4b3d c03d a2b4 1f3c 3034 c73d 4b37 813e
00000110: b7cd 8dbc 71fb c9bd 0554 4bbe 18bb 92bc
00000120: dfb1 33bd 0482 89bc 9304 8abd 0878 99bc
00000130: 2700 a83e c915 edbd 45a1 68be b1ca 033c
00000140: d36a 553e f1a4 8bbe 6446 b33d 7f88 973c
00000150: 32fd be3d 2265 6e3d bcc3 c3bd 2aa8 5c3e
00000160: 8cec f03e e996 c5bc 28dc 863d d233 9a3e
00000170: a7ea 933c 15a5 0a3f 8792 9abe bd80 5d3b
00000180: 9f84 963b df65 6f3e ca09 8a3c fa16 343e
00000190: 2050 dfbe f8a4 2a3e aac5 7cbd 8dd5 a23c
000001a0: 0b82 8b3d 153d 23bc 4655 19be c3f6 8b3d
000001b0: 01e6 97bd 3eb9 c2bc 29c9 db3d 85af 40bd
000001c0: 30ae 1ebc e2af 383e 9fcc 3f3c 2d66 8abe
000001d0: 3fbf 233c 2e08 893d 4070 64be ad0c 78bc
000001e0: 19d0 a7be cff7 bbbd c015 5c3e f2a0 9bbe
000001f0: dc51 8dbc 047e 39bd c3ff 9abd dced 9e3e
00000200: 73bc c8bc bcbf ca3b 5012 ab3c 991f 12bc
00000210: 0913 96bd 4db9 81bc 9dec bebc 1bab fc3b
00000220: e730 2cbd 5de2 a8bc 7eeb 0cbd 28f3 3c3c
00000230: 7e21 c2bc c6bf c53c 625a c3bb 2a75 033d
00000240: 21e6 a73c bc70 bfbc 658c 1f3d 583d d5bc
00000250: 61bc 6e3b 127a f2bc 272d 2d3c 1cd3 493b
00000260: d9f8 4f3c 4a27 0abd 0c4b e0bb 680a 313c
00000270: 778c 273c f238 06ba 35c7 2c3d 794e c3bc
00000280: 323b 8a3c 8e22 603c 97d2 843c deff 6c3c
00000290: 1512 023d 373d 1e3d 4f54 e1bc 7d3a aa3b
000002a0: 6904 1abd ada8 44bc 9446 cabc 4109 603c
000002b0: 041e a6bb a11e 483c 310f a6bc 0c90 363c
000002c0: c333 853d a668 0abc f15b 4abd 3760 11bd
000002d0: 2235 18bd a859 933c b543 58ba 7cdb 373c
000002e0: f57b 84bd 9c7e 84bc f08a aa3c 377b 22bd
000002f0: d79d 943b 8987 84bc 1341 3cbc 36dd 533c
00000300: 3106 ed3c ec44 60bc 83cc c63c 5362 113d
00000310: d40c 013c 289d bc3c f045 4a3d 4966 bf3c
00000320: 2938 513c dce8 deba b804 81bc 81cc af3c
00000330: f2f5 babc cc7e 1c3d 8fb9 a4bc 722f 6fbc
00000340: 4b81 46bb c110 f3bb 0621 303c 39af 4dbc
00000350: fc26 503c 3ed2 49bc 7ddd ee3c f3a3 0e3b
00000360: 308a 11bd 2b9e 823c 00b2 f6bc f6c4 203b
00000370: 8d0a 3e3b 6ee5 96bc e14b ca3a e8eb ed3a
00000380: ba05 a4bc d922 70bb eb60 87bc bbf4 f83b
00000390: 5f2d 26bc d7e1 f6bc 1d5b c73a b479 52bc
000003a0: 15eb e93b 78a4 15bb ba76 913b e011 ddbc
000003b0: 209e babc c250 df3c f685 6c3d 105c 003c
000003c0: d977 9ebc 510d e4ba 7268 793c 935a 93bc
000003d0: 73e1 193d cf25 123c e604 aabb 0e02 57bc
000003e0: c3a6 0f3c 5f28 3b3c 5bb7 26b8 5336 c6bc
000003f0: c5df af3b da5c fe3b 9f56 d53c 50d8 2d3b

model.4.bias f4 [64]
-0.463841 0.024903016 -0.08809269 -0.16911769 -0.08813055 -0.24340285 -0.58104014 -0.024263838
0.17911945 -0.2475792 -0.021482447 0.05951735 0.02506888 -0.1932961 0.03482544 0.0985239
-0.006496617 -0.50756633 -0.122142434 -0.025925664 0.21191745 0.119336486 0.16407268 -0.6170416
0.2699176 0.07515765 -0.26289994 0.23155038 -0.08302433 -0.2919228 0.05568919 0.21049885
-0.48101568 -0.17881122 -0.03011223 -0.05091944 -0.008178913 -0.35416883 -0.0678575 0.004024579
0.05585235 -0.074094675 0.068019256 -0.011477767 0.093849935 -0.022945222 -0.23904224 0.077120565
-0.41432446 0.27174786 -0.06449645 0.019762803 -0.22932342 -0.14564607 0.011982732 -0.03160401
0.07985926 -0.074334264 0.22220576 -0.12792534 -0.22803621 -0.047814723 0.036538303 -0.052093405
00000000: 917c edbe 6901 cc3c f169 b4bd 302d 2dbe
00000010: ca7d b4bd 993e 79be 0cbf 14bf f5c4 c6bc
00000020: 176b 373e 6785 7dbe f5fb afbc 77c8 733d
00000030: 405d cd3c 6aef 45be 1fa5 0e3d e6c6 c93d
00000040: 93e1 d4bb deef 01bf d025 fabd 0f62 d4bc
00000050: e300 593e b066 f43d ab02 283e 70f6 1dbf
00000060: a432 8a3e 41ec 993d d29a 86be 8b1b 6d3e
00000070: a908 aabd e876 95be 591a 643d 038d 573e
00000080: b047 f6be 4a1a 37be ecad f6bc e790 50bd
00000090: d900 06bc 9e55 b5be dff8 8abd 9ee0 833b
000000a0: 6fc5 643d f3be 97bd ae4d 8b3d 3e0d 3cbc
000000b0: 6534 c03d 9ef7 bbbc 7dc7 74be 63f1 9d3d
000000c0: 5622 d4be 8922 8b3e b716 84bd 9ae5 a13c
000000d0: c2d3 6abe 3e24 15be 3953 443c 3573 01bd
000000e0: 408d a33d 903c 98bd e889 633e dcfe 02be
000000f0: 5382 69be 5fd9 43bd 30a9 153d e55f 55bd

model.6.weight f4 [32, 64]
0.009189617 -0.016963506 -0.016273625 0.00034025352 -0.018604321 -0.0016973901 0.011858486 -0.01118527
0.003058395 -0.0026447913 0.022557227 0.011233183 0.009250593 -0.007787155 -0.0037875564 -0.00840747
0.01812452 0.0033815934 0.028881991 -0.019244654 -0.00098438 0.0022822637 -0.004666225 0.0026111985
-0.0058053597 -0.009581984 -0.0033720923 -0.005334816 0.0023487702 0.005599441 -0.014716333 0.0018378414
0.0038260834 -0.0015424135 0.0052414103 -0.007500359 0.01400667 -0.0005526724 0.01676842 -0.009312007
0.000635045 0.0014181674 -6.302293e-05 -0.0010554903 0.022089103 0.025283068 0.00057808636 -0.020043287
-0.00089861057 0.003809602 -0.00091582997 -0.0049234945 -0.0004411566 -0.0055508134 0.0031940592 -0.0023960904
-0.008176779 0.020624526 0.0063396217 0.0036432098 -0.0011476127 0.0038375692 -0.015497975 -0.021089697
-0.0006897601 -0.03693469 0.0063746846 0.001714174 -0.0066992915 -0.00482307 -0.0174962 0.01744141
0.009573301 0.005081393 0.009418376 -0.025854502 -0.002919431 0.0011427855 -0.0027961587 -0.009327074
0.015458831 0.0019507356 0.018353598 -0.016748924 0.0010926465 -0.0082323365 -0.0048896484 0.000505883
0.0025636717 -0.007318028 -0.0026412588 0.0075885775 0.00275314 -3.2441065e-05 0.007888249 -0.0024782966
0.0074219974 0.007657104 -0.019173238 0.03000312 -0.0068137264 -0.00013958287 -0.019463386 -0.013134737
0.005689522 0.015315964 -0.0037322675 0.0008421692 -0.0044570244 -0.015345015 -0.0017841527 -0.005426137
-0.0056721554 0.0005475796 0.004669557 -0.0032199214 0.0071293074 -0.0023261092 0.008607635 0.018686583
-0.002126524 0.005455508 -0.002393159 0.0047911117 0.004588565 0.0062652146 -0.0062012663 -0.023986539
0.06941478 0.015170945 -0.016078174 0.09699336 0.0032181283 0.047547694 -0.10526934 -0.00064254296
0.0826779 -0.11177068 0.06567795 0.014349813 0.008430672 -0.07773414 0.028122732 -0.023360403
0.020365248 -0.03663109 -0.013728324 -0.0051559326 -0.16833287 0.020569215 -0.09370292 0.14307846
-0.23166321 0.17291938 -0.13300663 -0.0044650487 -0.10124041 0.07212118 0.006622938 0.04988532
0.010758742 0.17712902 -0.023953158 0.01425806 -0.010661732 0.011736765 -0.003461688 0.0015566495
-0.00439474 -0.0006588093 0.047105215 -0.0071023568 0.008614048 0.0033661036 -0.08482772 0.003214194
-0.24541518 -0.056774095 0.0023330033 -0.0045663263 0.27014384 -0.08406726 -0.16553192 0.0034795043
0.0048449645 0.0046670213 0.10065384 -0.28982088 -0.19726421 -0.27175084 -0.005678452 0.0051251194
-0.0025972906 0.0010497823 0.017166262 0.0058299946 0.008262219 0.00032588159 -0.0028929447 -0.00728148
-0.00094750914 0.0026564419 0.02691997 -0.008469861 0.009751368 0.0007213724 -0.00035903195 0.0030082827
0.0114288 -0.0011155828 -0.011874413 -0.014045963 -6.0503713e-05 -0.0027404828 -0.0011361879 0.0003608392
0.004031435 0.0030333153 -0.008103464 0.004354401 -0.0042067883 -0.0003390476 0.010968538 0.000719382
0.0050671618 -0.0019267597 0.002214375 0.004353639 -0.0051199268 0.0010613266 -0.016482158 -0.00044059413
-0.0035388619 -0.014363595 -0.0039572534 -0.013054755 0.0076952167 -0.012443114 -0.0037171275 -0.0054367064
0.00081035984 0.0007062134 0.0026642783 0.015468084 -0.0029003783 -0.0029558232 -0.001183538 0.024114503
0.00428262 0.00088707794 0.01218246 0.0023459543 -0.0004428358 0.00548426 0.023717511 -0.013403802
00000000: 0c90 163c 0df7 8abc 4450 85bc 0e64 b239
00000010: 1768 98bc f67a deba 184a 423c 6c42 37bc
00000020: 5b6f 483b 3c54 2dbb efc9 b83c 620b 383c
00000030: cd8f 173c 642b ffbb a738 78bb 7cbf 09bc
00000040: e079 943c b99d 5d3b ed99 ec3c f7a6 9dbc
00000050: 5006 81ba 0892 153b 22e7 98bb a420 2b3b
00000060: e33a bebb c1fd 1cbc 52fe 5cbb aecf aebb
00000070: d3ed 193b 847b b73b c61c 71bc b9e3 f03a
00000080: 07bf 7a3b cf2a caba 23c0 ab3b 92c5 f5bb
00000090: 3b7c 653c 38e1 10ba ed5d 893c 6391 18bc
000000a0: 2679 263a cde1 b93a 2e2b 84b8 6158 8aba
000000b0: 35f4 b43c 701e cf3c b88a 173a d231 a4bc
000000c0: bc90 6bba 84aa 793b 4f14 70ba 4455 a1bb
000000d0: 094b e7b9 99e3 b5bb 6c53 513b ba07 1dbb
000000e0: e6f7 05bc c4f4 a83c 9abc cf3b ebc2 6e3b
000000f0: 7e6b 96ba ba7f 7b3b 38eb 7dbc 4dc4 acbc
00000100: 04d1 34ba d448 17bd bbe2 d03b 23ae e03a
00000110: bb85 dbbb d80a 9ebb 3154 8fbc 4ae1 8e3c
00000120: 56d9 1c3c d081 a63b 884f 1a3c d2cc d3bc
00000130: ed53 3fbb 85c9 953a c23f 37bb 95d0 18bc
00000140: 0947 7d3c d3af ff3a 495a 963c 0a35 89bc
00000150: 2237 8f3a ece0 06bc 5839 a0bb 3c9d 043a
00000160: 4603 283b 11cc efbb f818 2dbb 9aa9 f83b
00000170: 066e 343b 5411 08b8 b73d 013c eb6a 22bb
00000180: 3a34 f33b 72e8 fa3b 3211 9dbc 1ac9 f53c
00000190: ae45 dfbb fe5c 12b9 ae71 9fbc 1433 57bc
000001a0: 2b6f ba3b cfef 7a3c 0f99 74bb 05c5 5c3a
000001b0: 3b0c 92bb a869 7bbc 3bda e9ba bccd b1bb
000001c0: 7ddd b9bb 728b 0f3a 1503 993b 5105 53bb
000001d0: f79c e93b a371 18bb 0a07 0d3c 9b14 993c
000001e0: 275d 0bbb 1ec4 b23b 8cd6 1cbb c2fe 9c3b
000001f0: ac5b 963b 6e4c cd3b fe33 cbbb 6b7f c4bc
00000200: 5629 8e3d 8e8f 783c 60b6 83bc 74a4 c63d
00000210: 3ce7 523b 5fc1 423d 7497 d7bd 5470 28ba
00000220: 0853 a93d 07e8 e4bd 2982 863d 7a1b 6b3c
00000230: cd20 0a3c 1433 9fbd a561 e63c 515e bfbc
00000240: 05d5 a63c 7b0a 16bd c4ec 60bc 19f3 a8bb
00000250: 745f 2cbe c580 a83c 51e7 bfbd 2983 123e
00000260: 1f39 6dbe c711 313e e432 08be 8b4f 92bb
00000270: 2257 cfbd 45b4 933d 3b05 d93b 8d54 4c3d
00000280: 6f45 303c 4f61 353e 6a39 c4bc a39a 693c
00000290: 8cae 2ebc 8f4b 403c 7ddd 62bb 7d08 cc3a
000002a0: c001 90bb f2b3 2cba 66f1 403d e3ba e8bb
000002b0: f021 0d3c d999 5c3b 28ba adbd 3aa5 523b
000002c0: 1e4e 7bbe f48b 68bd 4de5 183b 1fa1 95bb
000002d0: 4b50 8a3e 752b acbd 3381 29be 6508 643b
000002e0: 82c2 9e3b d0ed 983b 9a23 ce3d 6763 94be
000002f0: a1ff 49be ed22 8bbe 4f12 babb 9ef0 a73b
00000300: 4e37 2abb d998 893a 43a0 8c3c 8a09 bf3b
00000310: 425e 073c 16db aa39 8f97 3dbb 7b99 eebb
00000320: 4362 78ba b317 2e3b 4587 dc3c 2cc5 0abc
00000330: 34c4 1f3c 7b1a 3d3a 743c bcb9 9c26 453b
00000340: dd3f 3b3c bf38 92ba e68c 42bc 0a21 66bc
00000350: 5ec5 7db8 ac99 33bb 24ec 94ba 052f bd39
00000360: 211a 843b 96ca 463b 64c4 04bc 5daf 8e3b
00000370: 19d9 89bb 33c2 b1b9 62b5 333c e994 3c3a
00000380: 6f0a a63b 548b fcba 0c1f 113b f9a8 8e3b
00000390: 0fc5 a7bb 361c 8b3a 9705 87bc 8bff e6b9
000003a0: 40ec 67bb 4955 6bbc d9ab 81bb 9ce3 55bc
000003b0: 2828 fc3b 34de 4bbc 0d9b 73bb 6626 b2bb
000003c0: 546e 543a 2e21 393a 2c9b 2e3b d96d 7d3c
000003d0: 4614 3ebb 7cb6 41bb f220 9bba c78b c53c
000003e0: 3855 8c3b cb8a 683a f198 473c 95be 193b
000003f0: 6a2c e8b9 4fb5 b33b 3a4b c23c 9f9b 5bbc

model.6.bias f4 [32]
0.007259755 -0.012453351 -0.1012418 -0.0056903595 -0.024842465 0.032363333 0.015917556 0.009048353
-0.0685466 -0.34930226 0.08359756 0.019361619 -0.011422927 -0.02939532 -0.52065414 0.00035972992
0.015646089 -0.022430139 -0.10634391 -0.13746983 0.22582333 -0.08027817 0.012510659 0.032367222
-0.013196443 0.016766734 -0.018058319 0.01384703 -0.19242714 0.02750123 0.017451672 -0.25614637
00000000: 3de3 ed3b 2409 4cbc dc57 cfbd 3276 babb
00000010: 6d82 cbbc 6a8f 043d 8965 823c 8b3f 143c
00000020: 2962 8cbd bfd7 b2be 3335 ab3d 429c 9e3c
00000030: 3a27 3bbc 74ce f0bc 9749 05bf 229a bc39
00000040: 3a2c 803c 69bf b7bc d6ca d9bd e4c4 0cbe
00000050: 3b3e 673e e268 a4bd 82f9 4c3c 7e93 043d
00000060: e535 58bc 645a 893c 0aef 93bc a7de 623c
00000070: 9f0b 45be 424a e13c cff6 8e3c 9e25 83be

model.8.weight f4 [1, 32]
-0.0004379638 0.00020460636 -0.01071664 0.00043901431 -0.00050013454 -0.0011711105 0.0003532928 0.0012001885
-0.034333542 -0.051487405 0.037750926 -0.0003144682 -0.007254426 0.01118841 -0.14358829 -4.5771914e-05
0.00084460655 0.00039942027 -0.00013311103 0.022497447 0.011374985 -0.00945102 0.00085764733 -0.0006520711
-0.00014204226 -0.0008576867 0.00031631906 0.00033841692 -0.007838637 -0.0002655628 0.0006440298 -0.025604233
00000000: 829e e5b9 9a8b 5639 d994 2fbc 812b e639
00000010: 761b 03ba f37f 99ba 283a b939 a54f 9d3a
00000020: 54a1 0cbd 75e4 52bd b7a0 1a3d 35df a4b9
00000030: 89b6 edbb 984f 373c cf08 13be 38fb 3fb8
00000040: 9668 5d3a 4869 d139 b893 0bb9 914c b83c
00000050: 255e 3a3c 73d8 1abc bdd3 603a c0ef 2aba
00000060: 2ef1 14b9 61d6 60ba a0d7 a539 8d6d b139
00000070: a06d 00bc 3c3b 8bb9 1cd4 283a f8bf d1bc
